…
2025-01-31 17:27:20,445 - mmdet - INFO - initialize FPN with init_cfg {'type': 'Xavier', 'layer': 'Conv2d', 'distribution': 'uniform'}
2025-01-31 17:27:20,486 - mmdet - INFO - initialize QueryGenerator with init_cfg [{'type': 'Normal', 'std': 0.001, 'override': {'name': 'fc_center'}}, {'type': 'Xavier', 'distribution': 'uniform', 'override': [{'name': 'shared_fcs'}, {'name': 'cls_fcs'}, {'name': 'size_fcs'}, {'name': 'heading_fcs'}, {'name': 'center_fcs'}, {'name': 'attr_fcs'}, {'name': 'extra_enc'}]}]
2025-01-31 17:27:20,503 - mmdet - INFO - Model:
MV2D(
  (base_detector): TwoStageDetBase(
    (backbone): ResNet(
      (conv1): Conv2d(3, 64, kernel_size=(7, 7), stride=(2, 2), padding=(3, 3), bias=False)
      (bn1): BatchNorm2d(64, eps=1e-05, momentum=0.1, affine=True, track_running_stats=True)
      (relu): ReLU(inplace=True)
      (maxpool): MaxPool2d(kernel_size=3, stride=2, padding=1, dilation=1, ceil_mode=False)
      (layer1): ResLayer(
        (0): Bottleneck(
          (conv1): Conv2d(64, 64, kernel_size=(1, 1), stride=(1, 1), bias=False)
          (bn1): BatchNorm2d(64, eps=1e-05, momentum=0.1, affine=True, track_running_stats=True)
          (conv2): Conv2d(64, 64, kernel_size=(3, 3), stride=(1, 1), padding=(1, 1), bias=False)
          (bn2): BatchNorm2d(64, eps=1e-05, momentum=0.1, affine=True, track_running_stats=True)
          (conv3): Conv2d(64, 256, kernel_size=(1, 1), stride=(1, 1), bias=False)
          (bn3): BatchNorm2d(256, eps=1e-05, momentum=0.1, affine=True, track_running_stats=True)
          (relu): ReLU(inplace=True)
          (downsample): Sequential(
            (0): Conv2d(64, 256, kernel_size=(1, 1), stride=(1, 1), bias=False)
            (1): BatchNorm2d(256, eps=1e-05, momentum=0.1, affine=True, track_running_stats=True)
          )
        )
        (1): Bottleneck(
          (conv1): Conv2d(256, 64, kernel_size=(1, 1), stride=(1, 1), bias=False)
          (bn1): BatchNorm2d(64, eps=1e-05, momentum=0.1, affine=True, track_running_stats=True)
          (conv2): Conv2d(64, 64, kernel_size=(3, 3), stride=(1, 1), padding=(1, 1), bias=False)
          (bn2): BatchNorm2d(64, eps=1e-05, momentum=0.1, affine=True, track_running_stats=True)
          (conv3): Conv2d(64, 256, kernel_size=(1, 1), stride=(1, 1), bias=False)
          (bn3): BatchNorm2d(256, eps=1e-05, momentum=0.1, affine=True, track_running_stats=True)
          (relu): ReLU(inplace=True)
        )
        (2): Bottleneck(
          (conv1): Conv2d(256, 64, kernel_size=(1, 1), stride=(1, 1), bias=False)
          (bn1): BatchNorm2d(64, eps=1e-05, momentum=0.1, affine=True, track_running_stats=True)
          (conv2): Conv2d(64, 64, kernel_size=(3, 3), stride=(1, 1), padding=(1, 1), bias=False)
          (bn2): BatchNorm2d(64, eps=1e-05, momentum=0.1, affine=True, track_running_stats=True)
          (conv3): Conv2d(64, 256, kernel_size=(1, 1), stride=(1, 1), bias=False)
          (bn3): BatchNorm2d(256, eps=1e-05, momentum=0.1, affine=True, track_running_stats=True)
          (relu): ReLU(inplace=True)
        )
      )
      (layer2): ResLayer(
        (0): Bottleneck(
          (conv1): Conv2d(256, 128, kernel_size=(1, 1), stride=(1, 1), bias=False)
          (bn1): BatchNorm2d(128, eps=1e-05, momentum=0.1, affine=True, track_running_stats=True)
          (conv2): Conv2d(128, 128, kernel_size=(3, 3), stride=(2, 2), padding=(1, 1), bias=False)
          (bn2): BatchNorm2d(128, eps=1e-05, momentum=0.1, affine=True, track_running_stats=True)
          (conv3): Conv2d(128, 512, kernel_size=(1, 1), stride=(1, 1), bias=False)
          (bn3): BatchNorm2d(512, eps=1e-05, momentum=0.1, affine=True, track_running_stats=True)
          (relu): ReLU(inplace=True)
          (downsample): Sequential(
            (0): Conv2d(256, 512, kernel_size=(1, 1), stride=(2, 2), bias=False)
            (1): BatchNorm2d(512, eps=1e-05, momentum=0.1, affine=True, track_running_stats=True)
          )
        )
        (1): Bottleneck(
          (conv1): Conv2d(512, 128, kernel_size=(1, 1), stride=(1, 1), bias=False)
          (bn1): BatchNorm2d(128, eps=1e-05, momentum=0.1, affine=True, track_running_stats=True)
          (conv2): Conv2d(128, 128, kernel_size=(3, 3), stride=(1, 1), padding=(1, 1), bias=False)
          (bn2): BatchNorm2d(128, eps=1e-05, momentum=0.1, affine=True, track_running_stats=True)
          (conv3): Conv2d(128, 512, kernel_size=(1, 1), stride=(1, 1), bias=False)
          (bn3): BatchNorm2d(512, eps=1e-05, momentum=0.1, affine=True, track_running_stats=True)
          (relu): ReLU(inplace=True)
        )
        (2): Bottleneck(
          (conv1): Conv2d(512, 128, kernel_size=(1, 1), stride=(1, 1), bias=False)
          (bn1): BatchNorm2d(128, eps=1e-05, momentum=0.1, affine=True, track_running_stats=True)
          (conv2): Conv2d(128, 128, kernel_size=(3, 3), stride=(1, 1), padding=(1, 1), bias=False)
          (bn2): BatchNorm2d(128, eps=1e-05, momentum=0.1, affine=True, track_running_stats=True)
          (conv3): Conv2d(128, 512, kernel_size=(1, 1), stride=(1, 1), bias=False)
          (bn3): BatchNorm2d(512, eps=1e-05, momentum=0.1, affine=True, track_running_stats=True)
          (relu): ReLU(inplace=True)
        )
        (3): Bottleneck(
          (conv1): Conv2d(512, 128, kernel_size=(1, 1), stride=(1, 1), bias=False)
          (bn1): BatchNorm2d(128, eps=1e-05, momentum=0.1, affine=True, track_running_stats=True)
          (conv2): Conv2d(128, 128, kernel_size=(3, 3), stride=(1, 1), padding=(1, 1), bias=False)
          (bn2): BatchNorm2d(128, eps=1e-05, momentum=0.1, affine=True, track_running_stats=True)
          (conv3): Conv2d(128, 512, kernel_size=(1, 1), stride=(1, 1), bias=False)
          (bn3): BatchNorm2d(512, eps=1e-05, momentum=0.1, affine=True, track_running_stats=True)
          (relu): ReLU(inplace=True)
        )
      )
      (layer3): ResLayer(
        (0): Bottleneck(
          (conv1): Conv2d(512, 256, kernel_size=(1, 1), stride=(1, 1), bias=False)
          (bn1): BatchNorm2d(256, eps=1e-05, momentum=0.1, affine=True, track_running_stats=True)
          (conv2): ModulatedDeformConv2dPack(
            (conv_offset): Conv2d(256, 27, kernel_size=(3, 3), stride=(2, 2), padding=(1, 1))
          )
          (bn2): BatchNorm2d(256, eps=1e-05, momentum=0.1, affine=True, track_running_stats=True)
          (conv3): Conv2d(256, 1024, kernel_size=(1, 1), stride=(1, 1), bias=False)
          (bn3): BatchNorm2d(1024, eps=1e-05, momentum=0.1, affine=True, track_running_stats=True)
          (relu): ReLU(inplace=True)
          (downsample): Sequential(
            (0): Conv2d(512, 1024, kernel_size=(1, 1), stride=(2, 2), bias=False)
            (1): BatchNorm2d(1024, eps=1e-05, momentum=0.1, affine=True, track_running_stats=True)
          )
        )
        (1): Bottleneck(
          (conv1): Conv2d(1024, 256, kernel_size=(1, 1), stride=(1, 1), bias=False)
          (bn1): BatchNorm2d(256, eps=1e-05, momentum=0.1, affine=True, track_running_stats=True)
          (conv2): ModulatedDeformConv2dPack(
            (conv_offset): Conv2d(256, 27, kernel_size=(3, 3), stride=(1, 1), padding=(1, 1))
          )
          (bn2): BatchNorm2d(256, eps=1e-05, momentum=0.1, affine=True, track_running_stats=True)
          (conv3): Conv2d(256, 1024, kernel_size=(1, 1), stride=(1, 1), bias=False)
          (bn3): BatchNorm2d(1024, eps=1e-05, momentum=0.1, affine=True, track_running_stats=True)
          (relu): ReLU(inplace=True)
        )
        (2): Bottleneck(
          (conv1): Conv2d(1024, 256, kernel_size=(1, 1), stride=(1, 1), bias=False)
          (bn1): BatchNorm2d(256, eps=1e-05, momentum=0.1, affine=True, track_running_stats=True)
          (conv2): ModulatedDeformConv2dPack(
            (conv_offset): Conv2d(256, 27, kernel_size=(3, 3), stride=(1, 1), padding=(1, 1))
          )
          (bn2): BatchNorm2d(256, eps=1e-05, momentum=0.1, affine=True, track_running_stats=True)
          (conv3): Conv2d(256, 1024, kernel_size=(1, 1), stride=(1, 1), bias=False)
          (bn3): BatchNorm2d(1024, eps=1e-05, momentum=0.1, affine=True, track_running_stats=True)
          (relu): ReLU(inplace=True)
        )
        (3): Bottleneck(
          (conv1): Conv2d(1024, 256, kernel_size=(1, 1), stride=(1, 1), bias=False)
          (bn1): BatchNorm2d(256, eps=1e-05, momentum=0.1, affine=True, track_running_stats=True)
          (conv2): ModulatedDeformConv2dPack(
            (conv_offset): Conv2d(256, 27, kernel_size=(3, 3), stride=(1, 1), padding=(1, 1))
          )
          (bn2): BatchNorm2d(256, eps=1e-05, momentum=0.1, affine=True, track_running_stats=True)
          (conv3): Conv2d(256, 1024, kernel_size=(1, 1), stride=(1, 1), bias=False)
          (bn3): BatchNorm2d(1024, eps=1e-05, momentum=0.1, affine=True, track_running_stats=True)
          (relu): ReLU(inplace=True)
        )
        (4): Bottleneck(
          (conv1): Conv2d(1024, 256, kernel_size=(1, 1), stride=(1, 1), bias=False)
          (bn1): BatchNorm2d(256, eps=1e-05, momentum=0.1, affine=True, track_running_stats=True)
          (conv2): ModulatedDeformConv2dPack(
            (conv_offset): Conv2d(256, 27, kernel_size=(3, 3), stride=(1, 1), padding=(1, 1))
          )
          (bn2): BatchNorm2d(256, eps=1e-05, momentum=0.1, affine=True, track_running_stats=True)
          (conv3): Conv2d(256, 1024, kernel_size=(1, 1), stride=(1, 1), bias=False)
          (bn3): BatchNorm2d(1024, eps=1e-05, momentum=0.1, affine=True, track_running_stats=True)
          (relu): ReLU(inplace=True)
        )
        (5): Bottleneck(
          (conv1): Conv2d(1024, 256, kernel_size=(1, 1), stride=(1, 1), bias=False)
          (bn1): BatchNorm2d(256, eps=1e-05, momentum=0.1, affine=True, track_running_stats=True)
          (conv2): ModulatedDeformConv2dPack(
            (conv_offset): Conv2d(256, 27, kernel_size=(3, 3), stride=(1, 1), padding=(1, 1))
          )
          (bn2): BatchNorm2d(256, eps=1e-05, momentum=0.1, affine=True, track_running_stats=True)
          (conv3): Conv2d(256, 1024, kernel_size=(1, 1), stride=(1, 1), bias=False)
          (bn3): BatchNorm2d(1024, eps=1e-05, momentum=0.1, affine=True, track_running_stats=True)
          (relu): ReLU(inplace=True)
        )
      )
      (layer4): ResLayer(
        (0): Bottleneck(
          (conv1): Conv2d(1024, 512, kernel_size=(1, 1), stride=(1, 1), bias=False)
          (bn1): BatchNorm2d(512, eps=1e-05, momentum=0.1, affine=True, track_running_stats=True)
          (conv2): ModulatedDeformConv2dPack(
            (conv_offset): Conv2d(512, 27, kernel_size=(3, 3), stride=(2, 2), padding=(1, 1))
          )
          (bn2): BatchNorm2d(512, eps=1e-05, momentum=0.1, affine=True, track_running_stats=True)
          (conv3): Conv2d(512, 2048, kernel_size=(1, 1), stride=(1, 1), bias=False)
          (bn3): BatchNorm2d(2048, eps=1e-05, momentum=0.1, affine=True, track_running_stats=True)
          (relu): ReLU(inplace=True)
          (downsample): Sequential(
            (0): Conv2d(1024, 2048, kernel_size=(1, 1), stride=(2, 2), bias=False)
            (1): BatchNorm2d(2048, eps=1e-05, momentum=0.1, affine=True, track_running_stats=True)
          )
        )
        (1): Bottleneck(
          (conv1): Conv2d(2048, 512, kernel_size=(1, 1), stride=(1, 1), bias=False)
          (bn1): BatchNorm2d(512, eps=1e-05, momentum=0.1, affine=True, track_running_stats=True)
          (conv2): ModulatedDeformConv2dPack(
            (conv_offset): Conv2d(512, 27, kernel_size=(3, 3), stride=(1, 1), padding=(1, 1))
          )
          (bn2): BatchNorm2d(512, eps=1e-05, momentum=0.1, affine=True, track_running_stats=True)
          (conv3): Conv2d(512, 2048, kernel_size=(1, 1), stride=(1, 1), bias=False)
          (bn3): BatchNorm2d(2048, eps=1e-05, momentum=0.1, affine=True, track_running_stats=True)
          (relu): ReLU(inplace=True)
        )
        (2): Bottleneck(
          (conv1): Conv2d(2048, 512, kernel_size=(1, 1), stride=(1, 1), bias=False)
          (bn1): BatchNorm2d(512, eps=1e-05, momentum=0.1, affine=True, track_running_stats=True)
          (conv2): ModulatedDeformConv2dPack(
            (conv_offset): Conv2d(512, 27, kernel_size=(3, 3), stride=(1, 1), padding=(1, 1))
          )
          (bn2): BatchNorm2d(512, eps=1e-05, momentum=0.1, affine=True, track_running_stats=True)
          (conv3): Conv2d(512, 2048, kernel_size=(1, 1), stride=(1, 1), bias=False)
          (bn3): BatchNorm2d(2048, eps=1e-05, momentum=0.1, affine=True, track_running_stats=True)
          (relu): ReLU(inplace=True)
        )
      )
    )
    init_cfg={'type': 'Pretrained', 'checkpoint': 'torchvision://resnet50'}
    (neck): FPN(
      (lateral_convs): ModuleList(
        (0): ConvModule(
          (conv): Conv2d(256, 256, kernel_size=(1, 1), stride=(1, 1))
        )
        (1): ConvModule(
          (conv): Conv2d(512, 256, kernel_size=(1, 1), stride=(1, 1))
        )
        (2): ConvModule(
          (conv): Conv2d(1024, 256, kernel_size=(1, 1), stride=(1, 1))
        )
        (3): ConvModule(
          (conv): Conv2d(2048, 256, kernel_size=(1, 1), stride=(1, 1))
        )
      )
      (fpn_convs): ModuleList(
        (0-3): 4 x ConvModule(
          (conv): Conv2d(256, 256, kernel_size=(3, 3), stride=(1, 1), padding=(1, 1))
        )
      )
    )
    init_cfg={'type': 'Xavier', 'layer': 'Conv2d', 'distribution': 'uniform'}
    (rpn_head): RPNHead(
      (loss_cls): CrossEntropyLoss(avg_non_ignore=False)
      (loss_bbox): L1Loss()
      (rpn_conv): Conv2d(256, 256, kernel_size=(3, 3), stride=(1, 1), padding=(1, 1))
      (rpn_cls): Conv2d(256, 3, kernel_size=(1, 1), stride=(1, 1))
      (rpn_reg): Conv2d(256, 12, kernel_size=(1, 1), stride=(1, 1))
    )
    init_cfg={'type': 'Normal', 'layer': 'Conv2d', 'std': 0.01}
    (roi_head): StandardRoIHead(
      (bbox_roi_extractor): SingleRoIExtractor(
        (roi_layers): ModuleList(
          (0): RoIAlign(output_size=(7, 7), spatial_scale=0.25, sampling_ratio=0, pool_mode=avg, aligned=True, use_torchvision=False)
          (1): RoIAlign(output_size=(7, 7), spatial_scale=0.125, sampling_ratio=0, pool_mode=avg, aligned=True, use_torchvision=False)
          (2): RoIAlign(output_size=(7, 7), spatial_scale=0.0625, sampling_ratio=0, pool_mode=avg, aligned=True, use_torchvision=False)
          (3): RoIAlign(output_size=(7, 7), spatial_scale=0.03125, sampling_ratio=0, pool_mode=avg, aligned=True, use_torchvision=False)
        )
      )
      (bbox_head): Shared2FCBBoxHead(
        (loss_cls): CrossEntropyLoss(avg_non_ignore=False)
        (loss_bbox): L1Loss()
        (fc_cls): Linear(in_features=1024, out_features=11, bias=True)
        (fc_reg): Linear(in_features=1024, out_features=40, bias=True)
        (shared_convs): ModuleList()
        (shared_fcs): ModuleList(
          (0): Linear(in_features=12544, out_features=1024, bias=True)
          (1): Linear(in_features=1024, out_features=1024, bias=True)
        )
        (cls_convs): ModuleList()
        (cls_fcs): ModuleList()
        (reg_convs): ModuleList()
        (reg_fcs): ModuleList()
        (relu): ReLU(inplace=True)
      )
      init_cfg=[{'type': 'Normal', 'std': 0.01, 'override': {'name': 'fc_cls'}}, {'type': 'Normal', 'std': 0.001, 'override': {'name': 'fc_reg'}}, {'type': 'Xavier', 'distribution': 'uniform', 'override': [{'name': 'shared_fcs'}, {'name': 'cls_fcs'}, {'name': 'reg_fcs'}]}]
    )
  )
  init_cfg={'type': 'Pretrained', 'checkpoint': './data/weights/mask_rcnn_r50_fpn_1x_nuim_20201008_195238-e99f5182.pth'}
  (neck): FPN(
    (lateral_convs): ModuleList(
      (0): ConvModule(
        (conv): Conv2d(256, 256, kernel_size=(1, 1), stride=(1, 1))
      )
    )
    (fpn_convs): ModuleList(
      (0): ConvModule(
        (conv): Conv2d(256, 256, kernel_size=(3, 3), stride=(1, 1), padding=(1, 1))
      )
    )
  )
  init_cfg={'type': 'Xavier', 'layer': 'Conv2d', 'distribution': 'uniform'}
  (roi_head): MV2DSHead(
    (bbox_roi_extractor): SingleRoIExtractor(
      (roi_layers): ModuleList(
        (0): RoIAlign(output_size=(7, 7), spatial_scale=0.0625, sampling_ratio=-1, pool_mode=avg, aligned=True, use_torchvision=False)
      )
…
                )
                (1): PETRMultiheadAttention(
                  (attn): MultiheadAttention(
                    (out_proj): NonDynamicallyQuantizableLinear(in_features=256, out_features=256, bias=True)
                  )
                  (proj_drop): Dropout(p=0.0, inplace=False)
                  (dropout_layer): Dropout(p=0.1, inplace=False)
                )
              )
              (ffns): ModuleList(
                (0): FFN(
                  (activate): ReLU(inplace=True)
                  (layers): Sequential(
                    (0): Sequential(
                      (0): Linear(in_features=256, out_features=2048, bias=True)
                      (1): ReLU(inplace=True)
                      (2): Dropout(p=0.1, inplace=False)
                    )
                    (1): Linear(in_features=2048, out_features=256, bias=True)
                    (2): Dropout(p=0.1, inplace=False)
                  )
                  (dropout_layer): Identity()
                )
              )
              (norms): ModuleList(
                (0-2): 3 x LayerNorm((256,), eps=1e-05, elementwise_affine=True)
              )
            )
          )
          (post_norm): LayerNorm((256,), eps=1e-05, elementwise_affine=True)
        )
      )
      (query_embedding): Sequential(
        (0): Linear(in_features=384, out_features=256, bias=True)
        (1): ReLU()
        (2): Linear(in_features=256, out_features=256, bias=True)
      )
      (cls_branches): ModuleList(
        (0-5): 6 x Sequential(
          (0): Linear(in_features=256, out_features=256, bias=True)
          (1): LayerNorm((256,), eps=1e-05, elementwise_affine=True)
          (2): ReLU(inplace=True)
          (3): Linear(in_features=256, out_features=256, bias=True)
          (4): LayerNorm((256,), eps=1e-05, elementwise_affine=True)
          (5): ReLU(inplace=True)
          (6): Linear(in_features=256, out_features=10, bias=True)
        )
      )
      (reg_branches): ModuleList(
        (0-5): 6 x Sequential(
          (0): Linear(in_features=256, out_features=256, bias=True)
          (1): ReLU()
          (2): Linear(in_features=256, out_features=256, bias=True)
          (3): ReLU()
          (4): Linear(in_features=256, out_features=10, bias=True)
        )
      )
    )
    (query_generator): QueryGenerator(
      (loss_cls): FocalLoss()
      (avg_pool): AvgPool2d(kernel_size=(7, 7), stride=(7, 7), padding=0)
      (shared_convs): ModuleList(
        (0): ConvModule(
          (conv): Conv2d(256, 256, kernel_size=(3, 3), stride=(1, 1), padding=(1, 1))
          (activate): ReLU(inplace=True)
        )
      )
      (shared_fcs): ModuleList(
        (0): Linear(in_features=256, out_features=1024, bias=True)
      )
      (extra_enc): Sequential(
        (0): Linear(in_features=1040, out_features=512, bias=True)
        (1): ReLU(inplace=True)
        (2): Linear(in_features=512, out_features=256, bias=True)
        (3): ReLU(inplace=True)
      )
      (cls_convs): ModuleList()
      (cls_fcs): ModuleList()
      (size_convs): ModuleList()
      (size_fcs): ModuleList()
      (heading_convs): ModuleList()
      (heading_fcs): ModuleList()
      (center_convs): ModuleList()
      (center_fcs): ModuleList()
      (attr_convs): ModuleList()
      (attr_fcs): ModuleList()
      (fc_center): Linear(in_features=256, out_features=3, bias=True)
      (relu): ReLU(inplace=True)
    )
    init_cfg=[{'type': 'Normal', 'std': 0.001, 'override': {'name': 'fc_center'}}, {'type': 'Xavier', 'distribution': 'uniform', 'override': [{'name': 'shared_fcs'}, {'name': 'cls_fcs'}, {'name': 'size_fcs'}, {'name': 'heading_fcs'}, {'name': 'center_fcs'}, {'name': 'attr_fcs'}, {'name': 'extra_enc'}]}]
    (position_encoding): PE(
      (position_encoder): Sequential(
        (0): Conv2d(192, 1024, kernel_size=(1, 1), stride=(1, 1))
        (1): ReLU()
        (2): Conv2d(1024, 256, kernel_size=(1, 1), stride=(1, 1))
      )
      (adapt_pos3d): Sequential(
        (0): Conv2d(384, 1024, kernel_size=(1, 1), stride=(1, 1))
        (1): ReLU()
        (2): Conv2d(1024, 256, kernel_size=(1, 1), stride=(1, 1))
      )
      (positional_encoding): SinePositionalEncoding3D(num_feats=128, temperature=10000, normalize=True, scale=6.283185307179586, eps=1e-06)
      (fpe): SELayer(
        (conv_reduce): Conv2d(256, 256, kernel_size=(1, 1), stride=(1, 1))
        (act1): ReLU()
        (conv_expand): Conv2d(256, 256, kernel_size=(1, 1), stride=(1, 1))
        (gate): Sigmoid()
      )
    )
    (box_corr_module): BoxCorrelation()
    (dynamic_linear): Linear(in_features=1536, out_features=3, bias=True)
    (corr_loss): CorrelationCycleLoss()
  )
  (grid_mask): CustomGridMask()
)
loading annotations into memory...
Done (t=23.32s)
creating index...
index created!
loading annotations into memory...
Done (t=2.05s)
creating index...
index created!
2025-01-31 17:28:01,275 - mmdet - INFO - Start running, host: root@sgvr-dev-002, work_dir: /workspace/MV2D/work_dirs/mv2d_r50_frcnn_single_frame_roi_1408x512_ep24_moon
…
